…
arter\scripts\train.py --obj_color blue --recurrence 4 --frames 1000000

Namespace(algo='ppo', batch_size=256, clip_eps=0.2, discount=0.99, entropy_coef=0.01, env='BabyAI-GoToObjCustom-v0', epochs=4, frames=1000000, frames_per_proc=None, gae_lambda=0.95, load=False, log_interval=1, lr=0.001, max_grad_norm=0.5, mem=True, model='model', obj_color='blue', obj_type=None, optim_alpha=0.99, optim_eps=1e-08, procs=16, recurrence=4, save_interval=10, seed=1, text=False, value_loss_coef=0.5)

Device: cuda

Environments loaded

observations preprocessor loaded
ACModel(
  (image_conv): Sequential(
    (0): Conv2d(3, 16, kernel_size=(2, 2), stride=(1, 1))
    (1): ReLU()
    (2): MaxPool2d(kernel_size=2, stride=2, padding=0, dilation=1, ceil_mode=False)
    (3): Conv2d(16, 32, kernel_size=(2, 2), stride=(1, 1))
    (4): ReLU()
    (5): Conv2d(32, 128, kernel_size=(2, 2), stride=(1, 1))
    (6): ReLU()
  )
  (memory_rnn): LSTMCell(128, 128)
  (actor): Sequential(
    (0): Linear(in_features=128, out_features=64, bias=True)
    (1): Tanh()
    (2): Linear(in_features=64, out_features=7, bias=True)
  )
  (critic): Sequential(
    (0): Linear(in_features=128, out_features=64, bias=True)
    (1): Tanh()
    (2): Linear(in_features=64, out_features=1, bias=True)
  )
)

Optimizer loaded

Goals loaded

C:\Users\ntg\Documents\composition_lang_project\compositional-rl-starter\scripts\train.py --obj_color blue --recurrence 4 --frames 1000000

Namespace(algo='ppo', batch_size=256, clip_eps=0.2, discount=0.99, entropy_coef=0.01, env='BabyAI-GoToObjCustom-v0', epochs=4, frames=1000000, frames_per_proc=None, gae_lambda=0.95, load=False, log_interval=1, lr=0.001, max_grad_norm=0.5, mem=True, model='model', obj_color='blue', obj_type=None, optim_alpha=0.99, optim_eps=1e-08, procs=16, recurrence=4, save_interval=10, seed=1, text=False, value_loss_coef=0.5)

Device: cuda

Environments loaded

observations preprocessor loaded
ACModel(
  (image_conv): Sequential(
    (0): Conv2d(3, 16, kernel_size=(2, 2), stride=(1, 1))
    (1): ReLU()
    (2): MaxPool2d(kernel_size=2, stride=2, padding=0, dilation=1, ceil_mode=False)
    (3): Conv2d(16, 32, kernel_size=(2, 2), stride=(1, 1))
    (4): ReLU()
    (5): Conv2d(32, 128, kernel_size=(2, 2), stride=(1, 1))
    (6): ReLU()
  )
  (memory_rnn): LSTMCell(128, 128)
  (actor): Sequential(
    (0): Linear(in_features=128, out_features=64, bias=True)
    (1): Tanh()
    (2): Linear(in_features=64, out_features=7, bias=True)
  )
  (critic): Sequential(
    (0): Linear(in_features=128, out_features=64, bias=True)
    (1): Tanh()
    (2): Linear(in_features=64, out_features=1, bias=True)
  )
)

Optimizer loaded

Goals loaded

b'U 1 | F 002048 | FPS 0250 | D 8 | G 3 | rR:uomM 0.00 0.00 0.00 0.00 | F:uomM 15.4 33.0 0.0 100.0 | H 1.945 | V 0.008 | S 0.188 | pL -0.018 | vL 0.006 | \xe2\x88\x87 0.017'
b'U 2 | F 004096 | FPS 0294 | D 15 | G 3 | rR:uomM 0.00 0.00 0.00 0.00 | F:uomM 57.8 87.4 0.0 253.0 | H 1.940 | V 0.084 | S 0.375 | pL -0.007 | vL 0.006 | \xe2\x88\x87 0.032'
…
C:\Users\ntg\Documents\composition_lang_project\compositional-rl-starter\scripts\train.py --obj_color blue --recurrence 4 --frames 1000000 --load

Namespace(algo='ppo', batch_size=256, clip_eps=0.2, discount=0.99, entropy_coef=0.01, env='BabyAI-GoToObjCustom-v0', epochs=4, frames=1000000, frames_per_proc=None, gae_lambda=0.95, load=True, log_interval=1, lr=0.001, max_grad_norm=0.5, mem=True, model='model', obj_color='blue', obj_type=None, optim_alpha=0.99, optim_eps=1e-08, procs=16, recurrence=4, save_interval=10, seed=1, text=False, value_loss_coef=0.5)

Device: cuda

Environments loaded

Training status loaded

observations preprocessor loaded
Model loaded

ACModel(
  (image_conv): Sequential(
    (0): Conv2d(3, 16, kernel_size=(2, 2), stride=(1, 1))
    (1): ReLU()
    (2): MaxPool2d(kernel_size=2, stride=2, padding=0, dilation=1, ceil_mode=False)
    (3): Conv2d(16, 32, kernel_size=(2, 2), stride=(1, 1))
    (4): ReLU()
    (5): Conv2d(32, 128, kernel_size=(2, 2), stride=(1, 1))
    (6): ReLU()
  )
  (memory_rnn): LSTMCell(128, 128)
  (actor): Sequential(
    (0): Linear(in_features=128, out_features=64, bias=True)
    (1): Tanh()
    (2): Linear(in_features=64, out_features=7, bias=True)
  )
  (critic): Sequential(
    (0): Linear(in_features=128, out_features=64, bias=True)
    (1): Tanh()
    (2): Linear(in_features=64, out_features=1, bias=True)
  )
)

C:\Users\ntg\Documents\composition_lang_project\compositional-rl-starter\scripts\train.py --obj_color blue --recurrence 4 --frames 1000000

Namespace(algo='ppo', batch_size=256, clip_eps=0.2, discount=0.99, entropy_coef=0.01, env='BabyAI-GoToObjCustom-v0', epochs=4, frames=1000000, frames_per_proc=None, gae_lambda=0.95, load=False, log_interval=1, lr=0.001, max_grad_norm=0.5, mem=True, model='model', obj_color='blue', obj_type=None, optim_alpha=0.99, optim_eps=1e-08, procs=16, recurrence=4, save_interval=10, seed=1, text=False, value_loss_coef=0.5)

Device: cuda

Environments loaded

observations preprocessor loaded
ACModel(
  (image_conv): Sequential(
    (0): Conv2d(3, 16, kernel_size=(2, 2), stride=(1, 1))
    (1): ReLU()
    (2): MaxPool2d(kernel_size=2, stride=2, padding=0, dilation=1, ceil_mode=False)
    (3): Conv2d(16, 32, kernel_size=(2, 2), stride=(1, 1))
    (4): ReLU()
    (5): Conv2d(32, 128, kernel_size=(2, 2), stride=(1, 1))
    (6): ReLU()
  )
  (memory_rnn): LSTMCell(128, 128)
  (actor): Sequential(
    (0): Linear(in_features=128, out_features=64, bias=True)
    (1): Tanh()
    (2): Linear(in_features=64, out_features=7, bias=True)
  )
  (critic): Sequential(
    (0): Linear(in_features=128, out_features=64, bias=True)
    (1): Tanh()
    (2): Linear(in_features=64, out_features=1, bias=True)
  )
)

C:\Users\ntg\Documents\composition_lang_project\compositional-rl-starter\scripts\train.py --obj_color blue --recurrence 4 --frames 1000000

Namespace(algo='ppo', batch_size=256, clip_eps=0.2, discount=0.99, entropy_coef=0.01, env='BabyAI-GoToObjCustom-v0', epochs=4, frames=1000000, frames_per_proc=None, gae_lambda=0.95, load=False, log_interval=1, lr=0.001, max_grad_norm=0.5, mem=True, model='model', obj_color='blue', obj_type=None, optim_alpha=0.99, optim_eps=1e-08, procs=16, recurrence=4, save_interval=10, seed=1, text=False, value_loss_coef=0.5)

Device: cuda

Environments loaded

observations preprocessor loaded
ACModel(
  (image_conv): Sequential(
    (0): Conv2d(3, 16, kernel_size=(2, 2), stride=(1, 1))
    (1): ReLU()
    (2): MaxPool2d(kernel_size=2, stride=2, padding=0, dilation=1, ceil_mode=False)
    (3): Conv2d(16, 32, kernel_size=(2, 2), stride=(1, 1))
    (4): ReLU()
    (5): Conv2d(32, 128, kernel_size=(2, 2), stride=(1, 1))
    (6): ReLU()
  )
  (memory_rnn): LSTMCell(128, 128)
  (actor): Sequential(
    (0): Linear(in_features=128, out_features=64, bias=True)
    (1): Tanh()
    (2): Linear(in_features=64, out_features=7, bias=True)
  )
  (critic): Sequential(
    (0): Linear(in_features=128, out_features=64, bias=True)
    (1): Tanh()
    (2): Linear(in_features=64, out_features=1, bias=True)
  )
)

Optimizer loaded

Goals loaded

b'U 1 | F 002048 | FPS 0236 | D 8 | G 3 | rR:uomM 0.00 0.00 0.00 0.00 | F:uomM 7.6 20.2 0.0 69.0 | H 1.942 | V 0.006 | S 0.125 | pL -0.010 | vL 0.003 | \xe2\x88\x87 0.021'
b'U 2 | F 004096 | FPS 0296 | D 15 | G 4 | rR:uomM 0.00 0.00 0.00 0.00 | F:uomM 19.4 48.4 0.0 190.0 | H 1.944 | V 0.016 | S 0.188 | pL 0.002 | vL 0.000 | \xe2\x88\x87 0.005'
…
C:\Users\ntg\Documents\composition_lang_project\compositional-rl-starter\scripts\train.py --obj_color blue --recurrence 4 --frames 10000000

Namespace(algo='ppo', batch_size=256, clip_eps=0.2, discount=0.99, entropy_coef=0.01, env='BabyAI-GoToObjCustom-v0', epochs=4, frames=10000000, frames_per_proc=None, gae_lambda=0.95, load=False, log_interval=1, lr=0.001, max_grad_norm=0.5, mem=True, model='model', obj_color='blue', obj_type=None, optim_alpha=0.99, optim_eps=1e-08, procs=16, recurrence=4, save_interval=10, seed=1, text=False, value_loss_coef=0.5)

Device: cuda

Environments loaded

observations preprocessor loaded
ACModel(
  (image_conv): Sequential(
    (0): Conv2d(3, 16, kernel_size=(2, 2), stride=(1, 1))
    (1): ReLU()
    (2): MaxPool2d(kernel_size=2, stride=2, padding=0, dilation=1, ceil_mode=False)
    (3): Conv2d(16, 32, kernel_size=(2, 2), stride=(1, 1))
    (4): ReLU()
    (5): Conv2d(32, 128, kernel_size=(2, 2), stride=(1, 1))
    (6): ReLU()
  )
  (memory_rnn): LSTMCell(128, 128)
  (actor): Sequential(
    (0): Linear(in_features=128, out_features=64, bias=True)
    (1): Tanh()
    (2): Linear(in_features=64, out_features=7, bias=True)
  )
  (critic): Sequential(
    (0): Linear(in_features=128, out_features=64, bias=True)
    (1): Tanh()
    (2): Linear(in_features=64, out_features=1, bias=True)
  )
)

Optimizer loaded

Goals loaded

b'U 1 | F 002048 | FPS 0175 | D 11 | G 18 | rR:uomM 0.00 0.00 0.00 0.00 | F:uomM 33.8 25.5 4.0 126.0 | H 1.940 | V 0.034 | S 0.286 | pL -0.041 | vL 0.018 | \xe2\x88\x87 0.025'
b'U 2 | F 004096 | FPS 0224 | D 20 | G 21 | rR:uomM 0.00 0.00 0.00 0.00 | F:uomM 72.9 55.7 11.0 192.0 | H 1.931 | V 0.042 | S 0.095 | pL 0.012 | vL 0.000 | \xe2\x88\x87 0.010'
…
